{"format": "torch", "nodes": [{"name": "Bert", "id": 139771770691728, "class_name": "DistilBertModel(\n  (embeddings): Embeddings(\n    (word_embeddings): Embedding(30526, 768)\n    (position_embeddings): Embedding(512, 768)\n    (LayerNorm): LayerNorm((768,), eps=1e-12, elementwise_affine=True)\n    (dropout): Dropout(p=0.1, inplace=False)\n  )\n  (transformer): Transformer(\n    (layer): ModuleList(\n      (0): TransformerBlock(\n        (attention): MultiHeadSelfAttention(\n          (dropout): Dropout(p=0.1, inplace=False)\n          (q_lin): Linear(in_features=768, out_features=768, bias=True)\n          (k_lin): Linear(in_features=768, out_features=768, bias=True)\n          (v_lin): Linear(in_features=768, out_features=768, bias=True)\n          (out_lin): Linear(in_features=768, out_features=768, bias=True)\n        )\n        (sa_layer_norm): LayerNorm((768,), eps=1e-12, elementwise_affine=True)\n        (ffn): FFN(\n          (dropout): Dropout(p=0.1, inplace=False)\n          (lin1): Linear(in_features=768, out_features=3072, bias=True)\n          (lin2): Linear(in_features=3072, out_features=768, bias=True)\n        )\n        (output_layer_norm): LayerNorm((768,), eps=1e-12, elementwise_affine=True)\n      )\n      (1): TransformerBlock(\n        (attention): MultiHeadSelfAttention(\n          (dropout): Dropout(p=0.1, inplace=False)\n          (q_lin): Linear(in_features=768, out_features=768, bias=True)\n          (k_lin): Linear(in_features=768, out_features=768, bias=True)\n          (v_lin): Linear(in_features=768, out_features=768, bias=True)\n          (out_lin): Linear(in_features=768, out_features=768, bias=True)\n        )\n        (sa_layer_norm): LayerNorm((768,), eps=1e-12, elementwise_affine=True)\n        (ffn): FFN(\n          (dropout): Dropout(p=0.1, inplace=False)\n          (lin1): Linear(in_features=768, out_features=3072, bias=True)\n          (lin2): Linear(in_features=3072, out_features=768, bias=True)\n        )\n        (output_layer_norm): LayerNorm((768,), eps=1e-12, elementwise_affine=True)\n      )\n      (2): TransformerBlock(\n        (attention): MultiHeadSelfAttention(\n          (dropout): Dropout(p=0.1, inplace=False)\n          (q_lin): Linear(in_features=768, out_features=768, bias=True)\n          (k_lin): Linear(in_features=768, out_features=768, bias=True)\n          (v_lin): Linear(in_features=768, out_features=768, bias=True)\n          (out_lin): Linear(in_features=768, out_features=768, bias=True)\n        )\n        (sa_layer_norm): LayerNorm((768,), eps=1e-12, elementwise_affine=True)\n        (ffn): FFN(\n          (dropout): Dropout(p=0.1, inplace=False)\n          (lin1): Linear(in_features=768, out_features=3072, bias=True)\n          (lin2): Linear(in_features=3072, out_features=768, bias=True)\n        )\n        (output_layer_norm): LayerNorm((768,), eps=1e-12, elementwise_affine=True)\n      )\n      (3): TransformerBlock(\n        (attention): MultiHeadSelfAttention(\n          (dropout): Dropout(p=0.1, inplace=False)\n          (q_lin): Linear(in_features=768, out_features=768, bias=True)\n          (k_lin): Linear(in_features=768, out_features=768, bias=True)\n          (v_lin): Linear(in_features=768, out_features=768, bias=True)\n          (out_lin): Linear(in_features=768, out_features=768, bias=True)\n        )\n        (sa_layer_norm): LayerNorm((768,), eps=1e-12, elementwise_affine=True)\n        (ffn): FFN(\n          (dropout): Dropout(p=0.1, inplace=False)\n          (lin1): Linear(in_features=768, out_features=3072, bias=True)\n          (lin2): Linear(in_features=3072, out_features=768, bias=True)\n        )\n        (output_layer_norm): LayerNorm((768,), eps=1e-12, elementwise_affine=True)\n      )\n      (4): TransformerBlock(\n        (attention): MultiHeadSelfAttention(\n          (dropout): Dropout(p=0.1, inplace=False)\n          (q_lin): Linear(in_features=768, out_features=768, bias=True)\n          (k_lin): Linear(in_features=768, out_features=768, bias=True)\n          (v_lin): Linear(in_features=768, out_features=768, bias=True)\n          (out_lin): Linear(in_features=768, out_features=768, bias=True)\n        )\n        (sa_layer_norm): LayerNorm((768,), eps=1e-12, elementwise_affine=True)\n        (ffn): FFN(\n          (dropout): Dropout(p=0.1, inplace=False)\n          (lin1): Linear(in_features=768, out_features=3072, bias=True)\n          (lin2): Linear(in_features=3072, out_features=768, bias=True)\n        )\n        (output_layer_norm): LayerNorm((768,), eps=1e-12, elementwise_affine=True)\n      )\n      (5): TransformerBlock(\n        (attention): MultiHeadSelfAttention(\n          (dropout): Dropout(p=0.1, inplace=False)\n          (q_lin): Linear(in_features=768, out_features=768, bias=True)\n          (k_lin): Linear(in_features=768, out_features=768, bias=True)\n          (v_lin): Linear(in_features=768, out_features=768, bias=True)\n          (out_lin): Linear(in_features=768, out_features=768, bias=True)\n        )\n        (sa_layer_norm): LayerNorm((768,), eps=1e-12, elementwise_affine=True)\n        (ffn): FFN(\n          (dropout): Dropout(p=0.1, inplace=False)\n          (lin1): Linear(in_features=768, out_features=3072, bias=True)\n          (lin2): Linear(in_features=3072, out_features=768, bias=True)\n        )\n        (output_layer_norm): LayerNorm((768,), eps=1e-12, elementwise_affine=True)\n      )\n    )\n  )\n)", "parameters": [["embeddings.word_embeddings.weight", [30526, 768]], ["embeddings.position_embeddings.weight", [512, 768]], ["embeddings.LayerNorm.weight", [768]], ["embeddings.LayerNorm.bias", [768]], ["transformer.layer.0.attention.q_lin.weight", [768, 768]], ["transformer.layer.0.attention.q_lin.bias", [768]], ["transformer.la
…
